Deep_Learning/Basic_Algorithms/2_softmax_regression/fashion_mnist_classifier.pth (torch, 33086 bytes, 2 tensors)

1.weight f4 [10, 784]
00000000: 26b2 7c3b 7850 86bc 252f cabc 5f39 6c39
00000010: 7158 0c3c 8245 263c 4247 0bbc ae46 2cbd
00000020: 0199 c1bc e3c4 05bc 3594 febc e5a2 903c
00000030: 3a39 3fbd 2267 11be b625 debd 90a6 14be
00000040: 6cc6 193d 5ed2 773d b24f 063c 6cd2 e63c
00000050: a742 c73c d9f2 95bc 820a 5abd d4c9 00bd
00000060: 755f 58bc 1bf2 e6bc 5ad0 7cbc a646 24bd
00000070: e575 6e3c bfe4 883c 24fc c43b c001 b83c
00000080: cd78 2dbd 54b0 b7bc 25f2 88bd cf21 aabc
00000090: 0afc 7aba 8803 63bd bec9 20bd 8dc1 fe3c
000000a0: 6b65 83bc 9d5b eb3c 7dff 033d 7696 643d
000000b0: aac2 ca3c 349a 7d3d 677c 3e3d 51be 953c
000000c0: f708 da3d 36a3 783c fd32 efbc cb09 353b
000000d0: b916 913a 5868 8c3c 9837 91bc f8da f73c
000000e0: e367 413c a7a0 36bd b42f 1bbc fe4c 9f3c
000000f0: ca2a a0bc 188f aabb 0c22 21bc 5939 ef3c
00000100: 812b 2c3c 237f b13b d37e 50bd 8738 d1ba
00000110: 28f8 b73c d678 083d e385 be3c 1d49 5a3d
00000120: a64a 83bc 2701 1abb b85e babc 0f28 9a3c
00000130: 72b1 3e3d 4c85 703d cf32 6b3d a3ab 6d3c
00000140: 87b9 553c 6c99 23bd 4916 883c 0dfc c0bc
00000150: 3859 583c 5c00 21bd 90e9 35bc b967 843c
00000160: c544 303d 7613 843d b135 043d a180 0e3d
00000170: 3e18 e63c 3da9 413d 6f2a 023c 2e67 76bd
00000180: c1c4 b53c 062a a8ba 7a07 d2bc ce8c 30bd
00000190: b2a1 eabc b172 06bd 144f b43c 5932 ea3c
000001a0: e463 1e3d 4c97 ad3d 9f61 1a3d 436c 083d
000001b0: bf89 e03c 3888 d93c c94b 1abd 04d1 8dbc
000001c0: fc94 01bd bc49 3bbd 767c aabc 27eb b73c
000001d0: b884 d53c 4629 5d3d cfda 8b3d 8367 36bd
000001e0: a3ed 403d 0f61 3f3d a08c 653c fdf2 86bd
000001f0: 092e 3dbc 3924 9abc 61b8 76bd 4d9c a6bc
00000200: 819e a2bd 6e51 61bd 06e9 dd3c 3249 413b
00000210: 6548 e238 dccb 743c f914 063e 27d0 8d3d
00000220: f13e 263d 19f6 b3bc d21c 5cbc 52f4 b73c
00000230: 2ffd a9bb e486 14bd 3839 ae3c 619b e53c
00000240: d51c 9b3d 34cb 963d 00fc 2e3d 83cf 99bd
00000250: 54c5 b43c 021e 863c a547 b33b b476 3abd
00000260: e9d9 57bd 2475 33bc fb4f 8abc 9ae6 89bc
00000270: 4cbc 99bd 4b41 eb3c 3a79 1a3d b8fc 083c
00000280: 3f4b bdbb 9723 b73c 2ca6 523d a349 a73d
00000290: 6463 373d 81ba 6d3c 0db9 3ebd 03fe 86bc
000002a0: 0848 1ebd 2c75 cabc c31d 1e3d d6ea 703c
000002b0: ed04 803d 205e 9c3d a0af a23d 7168 80ba
000002c0: 9c49 db3d 2e25 01bc 094d 79bc cd82 e7bb
000002d0: 700b 973b 115b 013c e0c1 c73b 91e3 8bbc
000002e0: 238d f63b e36e fdbc 12f3 4d3b fa73 be3d
000002f0: eec1 d9bc 842d a1bb 06ae e63d 59bd 833d
00000300: c04a ba3d a76b a33c 6d83 1ebd a8f1 cbbc
00000310: b3e3 ccbc 9766 923b 2e01 adba 6912 4f3d
00000320: cad2 d73d e06b d23d 0e4a b63d 0130 233d
00000330: 8f19 b53d ddd1 3a3d 76e1 0a3d c11b f43c
00000340: 587d ce3c 75b4 dcbc 5eb9 a3bd 6f1a d0bc
00000350: 5f6a 5e3c 287a 77bc 3d68 09bc bd5d e33d
00000360: 027e fd3c 405c 8abb 6597 c43d 07cd 883d
00000370: 4711 913d a614 a93c 0715 afbc ca9d 78bc
00000380: 14b5 023d 616a 203d fa02 513d 1297 0b3d
00000390: 2866 043e e281 ce3d d233 cb3d b7dc 7a3d
000003a0: 797e c13d 9e96 293d 6221 2a3d 3aca 8fb9
000003b0: 0551 82ba fd3c 8e3c 7acb 12bc 3b29 203b
000003c0: b1be 9ebc 9361 803c e4d6 463d c17c ba3d
000003d0: cc0b 523d ead8 213d 88d2 a63d fb02 6b3d
000003e0: f8dc 8f3d 53e5 d6bb 0163 04bd 894b b73c
000003f0: f12e 03bd a68b 01bd 4d1b 713d 0b0a 4f3d
0.0038558333 -0.016395792 -0.024680683 0.00022528086 0.008566008 0.010148408 -0.008500876 -0.042059593
-0.023632528 -0.008164617 -0.03107653 0.0176558 -0.046685435 -0.14199498 -0.108470365 -0.14516664
0.037542745 0.060503356 0.008197712 0.028176509 0.024323775 -0.018304275 -0.053232677 -0.03144248
-0.0132063525 -0.028191617 -0.015430534 -0.040106438 0.014554475 0.016710637 0.006011503 0.022461772
-0.042351533 -0.022422947 -0.066868104 -0.020768074 -0.00095743 -0.05542329 -0.039254896 0.031098152
-0.01603957 0.028730208 0.032226074 0.055807553 0.024751026 0.061914638 0.046505358 0.018279226
0.10646241 0.015175631 -0.029199118 0.0027624245 0.0011069394 0.017139599 -0.017726704 0.03025578
0.011804554 -0.044586804 -0.0094718225 0.019445892 -0.019551653 -0.0052050464 -0.009834778 0.02920215
0.010508419 0.005416767 -0.0509022 -0.0015962281 0.022457197 0.033318363 0.023257202 0.053292383
-0.016026806 -0.0023499222 -0.022750244 0.01881793 0.046555944 0.05872087 0.0574215 0.014506253
0.013044721 -0.039941236 0.016612189 -0.023557687 0.013204865 -0.039306983 -0.011103049 0.01616274
0.043034334 0.064490244 0.032277767 0.03479064 0.028087731 0.04728054 0.007944687 -0.060156994
0.022188546 -0.0012829907 -0.02563833 -0.04310303 -0.028641555 -0.032824222 0.022010364 0.02858846
0.038669482 0.08476123 0.037690755 0.03330637 0.027409432 0.026554212 -0.03766993 -0.01731158
-0.031636223 -0.045724615 -0.0208113 0.022450997 0.026064262 0.05399444 0.06828844 -0.04453231
0.047101628 0.04672342 0.014010578 -0.06589315 -0.01154662 -0.0188161 -0.06023443 -0.020338202
-0.079403885 -0.055009298 0.027088653 0.002949309 0.00010790004 0.014941182 0.13093938 0.069244675
0.04058737 -0.021967934 -0.013434606 0.022455368 -0.0051876525 -0.036261454 0.021267518 0.028028192
0.07573859 0.07362977 0.042720795 -0.07510283 0.02206675 0.01637173 0.005471187 -0.04552336
-0.05269805 -0.0109532215 -0.01688384 -0.016833592 -0.07506618 0.028717658 0.037713267 0.008361034
-0.0057767923 0.022355838 0.051428005 0.08168342 0.04477252 0.014509798 -0.046563197 -0.016478544
-0.038642913 -0.024714075 0.0386026 0.014704427 0.062509395 0.076351404 0.07943654 -0.0009796751
0.10707399 -0.0078823995 -0.0152161205 -0.007065153 0.0046095178 0.007895247 0.0060961097 -0.017076286
0.007524149 -0.030936664 0.0031425399 0.092994645 -0.02658173 -0.004918756 0.11263661 0.064325996
0.09096289 0.019948794 -0.038699556 -0.024895504 -0.02501092 0.004467796 -0.0013199204 0.050554667
0.10538252 0.10274482 0.089008436 0.039840702 0.088427655 0.045610297 0.033906423 0.02979839
0.025206253 -0.026941517 -0.0799434 -0.02540323 0.0135751655 -0.015104808 -0.008386669 0.111018635
0.030943874 -0.004222423 0.09599189 0.06679731 0.070833735 0.020639729 -0.021372331 -0.015174339
0.03191097 0.03916395 0.05102823 0.03407962 0.12929595 0.10083367 0.09921993 0.061245646
0.09447951 0.041403405 0.041535743 -0.00027425756 -0.0009942359 0.017363066 -0.008959645 0.0024438638
-0.019378038 0.015671527 0.04854478 0.09105826 0.05128078 0.039513506 0.081456244 0.05737589
0.07024568 -0.0065580993 -0.03232098 0.022374885 -0.03202719 -0.03162732 0.058863927 0.050546687

1.bias f4 [10]
00000000: 0ccd 943c f73f 16bc ede0 123d db59 8e3c
00000010: c7b2 2fbd d549 86bc 7926 db3c 6226 2fbd
00000020: ca66 af3d 9a80 603c
0.01816418 -0.009170524 0.035859037 0.01737683 -0.042895105 -0.016392628 0.026751744 -0.042761214
0.08564527 0.013702536
