Deep_Learning/Basic_Algorithms/1_linear_regression/best_house_price_model.pth (torch, 2994 bytes, 1 tensors)

0.weight f4 [1, 331]
0	0xc567f167	-3711.0876
1	0xc54d776c	-3287.4639
2	0x454c119d	3265.1008
3	0x468601f7	17152.982
4	0x45b51ba7	5795.4565
5	0x454fa71e	3322.4448
6	0x44331856	716.38025
7	0x45aaa0f2	5460.118
8	0x41abf4fa	21.494617
9	0x44f167fb	1931.2494
10	0x42565306	53.581078
11	0x444c3dc8	816.96533
12	0x45da70c5	6990.096
13	0x46144c03	9491.003
14	0xc30e1069	-142.0641
15	0x46521c51	13447.079
16	0x4583ff94	4223.9473
17	0x43ec800c	473.00037
18	0x458d47ed	4520.9907
19	0x44d8c6fa	1734.218
20	0xc5313398	-2835.2246
21	0xc513f50b	-2367.3152
22	0x4582371a	4166.8877
23	0x4586e353	4316.4155
24	0xc49ab34e	-1237.6033
25	0x46128446	9377.068
26	0x4456d2b7	859.2924
27	0x453467b3	2886.4812
28	0xc3f40109	-488.0081
29	0x43de2c55	444.34634
30	0x448196e9	1036.716
31	0x452a378c	2723.4717
32	0x4479d464	999.3186
33	0x439d7cfe	314.9765
34	0xc421d055	-647.2552
35	0xc487e22a	-1087.0676
36	0xc4972ecd	-1209.4625
37	0x45867606	4302.753
38	0x44a75712	1338.721
39	0x45d41f7f	6787.937
40	0xc4f30a7f	-1944.328
41	0xbc23e900	-0.010004282
42	0xc389c299	-275.5203
43	0x46153c80	9551.125
44	0xbce47b8d	-0.027890945
45	0x4462a1ad	906.5262
46	0x44b03d7e	1409.9216
47	0x45d979d4	6959.2285
48	0x45a3f0d3	5246.103
49	0x4586fded	4319.7407
50	0xc5612717	-3602.443
51	0x454f0320	3312.1953
52	0x3d2e695b	0.042580944
53	0xc5a6ca75	-5337.307
54	0x45a42851	5253.0396
55	0x4523f559	2623.3342
56	0x45d283ff	6736.4995
57	0xbd455fc8	-0.048187047
58	0x4617f320	9724.781
59	0xc3e0989d	-449.1923
60	0xbd054f82	-0.032546528
61	0x450790dc	2169.0537
62	0x45ea6d20	7501.6406
63	0xc4d738b2	-1721.7717
64	0xc3da8187	-437.01193
65	0x44dc773a	1763.7258
66	0x3d1179d3	0.03551657
67	0x4530287c	2818.5303
68	0x45d7ecd4	6909.6035
69	0xc3e248df	-452.5693
70	0x3c63f344	0.0139129795
71	0xc511fba2	-2335.727
72	0xc28cc82b	-70.39095
73	0xc3c4b2c5	-393.39664
74	0x45868510	4304.633
75	0x44549da6	850.46326
76	0xc597eea1	-4861.8286
77	0x45e3fe8c	7295.8184
78	0xc60567fe	-8537.998
79	0xc5c09672	-6162.8057
80	0x42a8f638	84.480896
81	0xc2d2b181	-105.34669
82	0xc54e1e4c	-3297.8936
83	0xc57ea2a8	-4074.166
84	0xc1cfb3c9	-25.962786
85	0xc5958109	-4784.1294
86	0x464e2d74	13195.363
87	0x464e855c	13217.34
88	0xc504663f	-2118.3904
89	0xc4984c91	-1218.3927
90	0xc4b912f1	-1480.5919
91	0xc47ebff3	-1018.9992
92	0x458a3662	4422.798
93	0x45ee1557	7618.6675
94	0xc5318f78	-2840.9668
95	0x44c9a017	1613.0028
96	0xbce90869	-0.028446393
97	0x4464647e	913.5702
98	0xc4bd795a	-1515.7922
99	0x463f4b1b	12242.776
100	0x43b2da7f	357.707
101	0xc5188df2	-2440.8716
102	0xc4b56ae5	-1451.3405
103	0x4488c87f	1094.2655
104	0xc3697f6f	-233.49779
105	0x439a635e	308.7763
106	0xbc7e9968	-0.015539505
107	0x43f10349	482.02567
108	0x4418bd6e	610.95984
109	0x462d285c	11082.09
110	0x440e080d	568.1258
111	0xc57632e2	-3939.1802
112	0xc0b4ec7f	-5.653869
113	0x42d233f3	105.10146
114	0x43ba1cc2	372.22467
115	0x3d0a2573	0.03372712
116	0x45fe215f	8132.1714
117	0x45290bda	2704.7407
118	0x4450cb4f	835.1767
119	0xc5136285	-2358.1575
120	0xc219675d	-38.35094
121	0x3cb56d62	0.022146884
122	0x44042345	528.5511
123	0x449b6464	1243.1372
124	0x460c539b	8980.901
125	0xc3caadf4	-405.359
126	0xc41b6c7e	-621.6952
127	0xc50e0c72	-2272.7778
128	0x4422afb4	650.74536
129	0x44928395	1172.1119
130	0x3c0741fc	0.008255478
131	0x449dba76	1261.8269
132	0x44c12174	1545.0454
133	0x4491e575	1167.1705
134	0x458edeff	4571.8745
135	0x438b1e97	278.23898
136	0x43e1b824	451.4386
137	0xbca22a88	-0.019795671
138	0xc5a4cb01	-5273.3755
139	0x45e7f38b	7422.443
140	0x43d562ea	426.77277
141	0x434aa54f	202.64574
142	0xbcda24a8	-0.026628807
143	0x4401838b	518.05536
144	0x4217c39a	37.941017
145	0x45b9a7e0	5940.9844
146	0x3d0d4121	0.03448594
147	0x443e2cc8	760.6997
148	0xc32c3eea	-172.24576
149	0x43381f39	184.12196
150	0x45f3ba4c	7799.287
151	0xc1a3aa80	-20.458252
152	0x450c3204	2243.126
153	0xc10ddff8	-8.86718
154	0x42ecfb62	118.49098
155	0x44ffa0dc	2045.0269
156	0xc3ebaa86	-471.3322
157	0xc30d34d0	-141.2063
158	0xc5859e5a	-4275.794
159	0x44d98fe7	1740.497
160	0xc4633d1b	-908.9548
161	0x43bfb13c	383.38464
162	0xbd04baa6	-0.032404564
163	0x44381324	736.2991
164	0x424d9b58	51.401703
165	0xc0344422	-2.8166585
166	0x45244c18	2628.7559
167	0xc1a3643d	-20.423944
168	0x4506bcc3	2155.7976
169	0x44cf067a	1656.2024
170	0x45706ba3	3846.7273
171	0x44d61fe4	1712.9966
172	0x4319ce3f	153.80565
173	0xc4426d6f	-777.7099
174	0xc32df5ab	-173.95964
175	0xc5617f2e	-3607.9487
176	0x44d1e373	1679.1078
177	0x44cf6f04	1659.4692
178	0xc517601f	-2422.0076
179	0x3b526fa0	0.003210999
180	0xc4e8539c	-1858.6128
181	0xc433e0f4	-719.5149
182	0x460693ee	8612.982
183	0x45375c2d	2933.761
184	0x43997ff6	306.9997
185	0x460930df	8780.218
186	0x451ecfbd	2540.9836
187	0x45137303	2359.1882
188	0xc589a639	-4404.778
189	0x3c00346c	0.007824998
190	0x440e0c3a	568.19104
191	0x455cd3e1	3533.2424
192	0x44a9637d	1355.109
193	0x42afb92d	87.86167
194	0x4569335e	3731.2104
195	0xb9cc1680	-0.00038926676
196	0x43a07f1f	320.99313
197	0x4569476f	3732.4646
198	0x45a1ab98	5173.449
199	0x448b239b	1113.1127
200	0xc35bd340	-219.8252
201	0xc45328f3	-844.63983
202	0xbcf410bb	-0.029793134
203	0x4681d743	16619.63
204	0x4395ab1e	299.33685
205	0xc5adea78	-5565.3086
206	0xc540bd58	-3083.834
207	0x447b7468	1005.81885
208	0x431bbb5f	155.73192
209	0x44f9b758	1997.7295
210	0x43f0a202	481.2657
211	0x45b01833	5635.025
212	0x447b7340	1005.8008
213	0x44bf54fb	1530.6556
214	0x4656a33e	13736.811
215	0xc46ff47a	-959.81995
216	0xc5b4e0da	-5788.1064
217	0x443d0345	756.0511
218	0x445a142e	872.3153
219	0x45156c00	2390.75
220	0x460c30f6	8972.24
221	0xc491f7f0	-1167.748
222	0x447bd28f	1007.29
223	0xc56dd223	-3805.1335
224	0x447b77a4	1005.8694
225	0x44f855e6	1986.6843
226	0xc460b8c3	-898.8869
227	0x444d3a43	820.91034
228	0xc382132c	-260.14978
229	0x43541e8c	212.11932
230	0x45c461e8	6284.2383
231	0x448d57fc	1130.7495
232	0x4333ed3e	179.92673
233	0x45cdebcf	6589.476
234	0x44c13547	1545.6649
235	0x44669be3	922.4357
236	0xc4315b93	-709.43085
237	0x443ae90a	747.64124
238	0xbd3da6d7	-0.04630169
239	0x458c844c	4496.537
240	0x4525f586	2655.3452
241	0x445a902a	874.25256
242	0xc2e14750	-112.63928
243	0x44aa435b	1362.1049
244	0xbd1d7750	-0.038443863
245	0x45964c73	4809.556
246	0x458b9109	4466.1294
247	0x3d525cc3	0.051357996
248	0x455cee3d	3534.89
249	0x44fb7d4d	2011.9156
250	0x43aecc28	349.59497
251	0x4298b993	76.36245
252	0x453e9d17	3049.818
253	0x437d283c	253.15717
254	0x466d77cd	15197.95
255	0x4534e5f2	2894.3716
